fashion-mnist.pth (torch, 439839 bytes, 6 tensors)

fc1.weight f4 [128, 784]
0	0xbdf0bf80	-0.11755276
1	0xbac83a67	-0.0015276194
2	0x3de9e8c9	0.11421353
3	0x3d7f0339	0.062258933
4	0xbe1eb4c7	-0.15498649
5	0xbe50e8a2	-0.20401242
6	0xbea97fd5	-0.3310534
7	0xbea88354	-0.32912695
8	0xbe08cac0	-0.13358593
9	0xbdd1a3d5	-0.102363266
10	0xbe930c7a	-0.28720456
11	0xbd16e4ce	-0.0368393
12	0xbd8eb8ac	-0.06968817
13	0xbe51168e	-0.2041876
14	0xbe64244d	-0.22279473
15	0xbdae1206	-0.084995314
16	0x3be27075	0.0069103786
17	0x3d0edd47	0.034878995
18	0xbd5251de	-0.051347606
19	0xbd79d349	-0.060992513
20	0x3e0d630f	0.13807319
21	0xbd8e1d44	-0.06939176
22	0xbd57780c	-0.05260472
23	0x3cc16cee	0.023611512
24	0xbdcd8c86	-0.10036568
25	0xbce66c1f	-0.028127728
26	0x3e4372cf	0.19086765
27	0xbcd4f292	-0.025994573
28	0x3ce0f2bd	0.027459497
29	0x3d4a7a25	0.049432892
30	0xbc80ede1	-0.01573843
31	0xbd81e067	-0.063416295
32	0xbe53c004	-0.20678717
33	0xbe823917	-0.2543418
34	0xbeaa1c1b	-0.33224568
35	0xbd3db378	-0.046313733
36	0x3dad4729	0.08460838
37	0xbd8414b1	-0.06449259
38	0xbd97f9c2	-0.074206844
39	0x3e3e5a10	0.18589044
40	0x3d9ba016	0.07598893
41	0x3dc0371b	0.093855105
42	0x3dc610c1	0.09671164
43	0x3e823739	0.25432757
44	0x3e3f381f	0.18673752
45	0x3d777f69	0.060424242
46	0x3c77faad	0.015135449
47	0x3d90ff3b	0.07079931
48	0x3ddd4137	0.10803454
49	0xbc7aecd2	-0.015315251
50	0xbafd312e	-0.0019317025
51	0x3da8b725	0.08238057
52	0x3d894271	0.06702126
53	0xbb2b44c4	-0.0026133517
54	0xbbedcbf0	-0.0072569773
55	0x3dce29ef	0.10066592
56	0xbcb76153	-0.022385275
57	0xbdbca5f7	-0.09211343
58	0xbda3b101	-0.07992745
59	0x3d374283	0.044741165
60	0xbdc977ff	-0.098373406
61	0xbe7bf6aa	-0.24605814
62	0xbe1d791e	-0.15378234
63	0xbd062a57	-0.032755222
64	0x3d6e85bb	0.058233004
65	0x3cbee1f9	0.023301112
66	0xbd77c382	-0.060489185
67	0xbd069428	-0.032856137
68	0x3d9e7b31	0.07738341
69	0x3d728547	0.059209134
70	0x3d0776f8	0.03307244
71	0x3e1dabe8	0.15397608
72	0xbc9cd8eb	-0.019146403
73	0x3dd8fe1a	0.10595341
74	0x3ca2444e	0.01980796
75	0x3ca48e18	0.020087287
76	0xbcec4319	-0.028840588
77	0xbc229415	-0.009923001
78	0x3d00e78a	0.031470813
79	0x3d654412	0.05597312
80	0x3e0e94e5	0.13923986
81	0x3e4aaabe	0.19791695
82	0x3d3da844	0.04630305
83	0x3e6d0c11	0.23149134
84	0xbd9ab0d7	-0.07553261
85	0xbd9c332a	-0.07626946
86	0xbdd615f2	-0.104534045
87	0xbd8337ec	-0.064071506
88	0xbe3412ab	-0.17585246
89	0xbdc34da2	-0.09536292
90	0xbdcf2bc9	-0.10115773
91	0xbe3e0fe7	-0.18560754
92	0xbd50c1b8	-0.050965995
93	0x3d29dde2	0.04147137
94	0xba3457b1	-0.0006879522
95	0xbd896ae8	-0.06709844
96	0x3d80cbd2	0.06288876
97	0x3bcf9124	0.006334441
98	0x3c04f073	0.008113968
99	0x3df8eb31	0.12154234
100	0x3d1f8a56	0.038950287
101	0xbcb5ed9e	-0.022208031
102	0x3cb650de	0.022255357
103	0xbc1af3f8	-0.009457581
104	0xbe01d830	-0.12680125
105	0xbd4a2afb	-0.049357396
106	0x3cab7f89	0.020934837
107	0x3ddcf71b	0.10789319
108	0x3db4cd43	0.08828213
109	0x3e0b0754	0.13577014
110	0x3e2126ef	0.15737508
111	0xbd3bd071	-0.045853082
112	0xbcfe8cdc	-0.031073026
113	0xbe54b6dd	-0.20772882
114	0xbe5d0f09	-0.21587767
115	0x3d61e740	0.055152178
116	0xbd9a4642	-0.07532932
117	0xbc1b918f	-0.009495153
118	0xbde32f8a	-0.11093052
119	0xbe3f1409	-0.18659987
120	0x3d682733	0.05667801
121	0x3cb22431	0.021745773
122	0x3c266f0e	0.010158313
123	0xbde2b773	-0.110701464
124	0x3cf9b578	0.030482039
125	0x3dd3a937	0.103350095
126	0x3d83691f	0.06416535
127	0x3e02a7b3	0.12759285
128	0x3a9f2fb2	0.0012144952
129	0x3bd0d897	0.006373476
130	0x3d927947	0.07152038
131	0x3dd78436	0.10523264
132	0x3d19d394	0.037555292
133	0xbcd12e51	-0.02553478
134	0x3c9792b2	0.018502567
135	0x3da9aa8f	0.082844846
136	0x3e5a3ebb	0.21312992
137	0x3e0eb4d0	0.13936162
138	0x3b336a94	0.0027376758
139	0x3de330cb	0.11093291
140	0x3d080833	0.033210944
141	0xbde066bf	-0.10957097
142	0x3ad8f9d7	0.001655395
143	0x3d91ef51	0.07125724
144	0x3e06322b	0.13105075
145	0xbce8e77c	-0.028430693
146	0xbdfc15d1	-0.12308849
147	0xbe406e9d	-0.18792196
148	0xbbb412a9	-0.0054953885
149	0xbc2fb96b	-0.010725359
150	0xbcb589d0	-0.02216044
151	0xbdccc646	-0.09998755
152	0x3c82f1c3	0.015984422
153	0x3df07911	0.117418416
154	0x3daec089	0.08532817
155	0xbd2804be	-0.041020148
156	0xbd22aa75	-0.03971334
157	0x3d9494ec	0.07254967
158	0x3d8ed0e0	0.069734335
159	0x3e019fd5	0.12658627
160	0xbd2e2ac9	-0.04252127
161	0xbd99b74b	-0.075056635
162	0xbd143755	-0.03618558
163	0x3e4e0ec3	0.20122819
164	0x3e40fb8f	0.18845962
165	0x3df8c017	0.12146013
166	0x3c250d58	0.010073982
167	0x3e0bd63e	0.13655946
168	0xbd294e77	-0.041334596
169	0x3e0f82cf	0.14014743
170	0x3e9d1fad	0.3068823
171	0x3e094cbd	0.1340818
172	0x3c8c05f0	0.017092675
173	0x3cc0c910	0.023533374
174	0xbdf624b0	-0.12018716
175	0xbdb06a79	-0.08614058
176	0x3e15c8da	0.146274
177	0x3be93229	0.0071165753
178	0xbc503c25	-0.012709652
179	0x3d5281b9	0.051393244
180	0x3a67d983	0.00088443625
181	0x3e01f9f7	0.1269301
182	0x3d8702f9	0.06592364
183	0x3d073b04	0.033015266
184	0x3ce6222c	0.028092466
185	0xbd92a5c0	-0.071605206
186	0x3c9bf156	0.019035976
187	0x3dd927bc	0.10603282
188	0xbd36f958	-0.044671386
189	0xbdb4b68c	-0.088238806
190	0xbc15e141	-0.009147943
191	0x3dbe20ce	0.09283601
192	0x3d588cc8	0.052868634
193	0x3e907ebe	0.28221697
194	0x3ea718c5	0.32636085
195	0x3d9d8ee8	0.07693273
196	0x3e38a2f3	0.1803091
197	0x3e82f50c	0.2557758
198	0x3e9ca5ce	0.3059525
199	0x3deeda31	0.116627105
200	0xbc9f4be1	-0.019445362
201	0x3c87d12e	0.016579237
202	0xbdf5aa13	-0.1199533
203	0xbdbcf607	-0.092266135
204	0x3e7a7f1a	0.24462548
205	0x3a188db0	0.0005819453
206	0xbcdfc448	-0.027315274
207	0x3dc72a61	0.0972488
208	0x3cfb7aec	0.030698262
209	0x3d8eede0	0.06978965
210	0xbd03aa5c	-0.03214489
211	0xbd2a95cd	-0.041646767
212	0x3d07ad4e	0.03312426
213	0xbd24a0ba	-0.040192343
214	0x3d537a80	0.051630497
215	0x3e330264	0.1748138
216	0x3dc72807	0.097244315
217	0xbd94729a	-0.07248421
218	0x3d3117b7	0.043235507
219	0xbd0727ec	-0.032997057
220	0x3d4fa93f	0.050698515
221	0x3e8b81d4	0.27247488
222	0x3e727094	0.23675758
223	0x3e899e47	0.2687857
224	0x3e760cf1	0.24028374
225	0x3ea1f449	0.31631687
226	0x3e3c2b51	0.18375899
227	0x3dba70e5	0.09103564
228	0x3c9cbd28	0.019133165
229	0x3d299302	0.041399963
230	0x3b1403c3	0.002258525
231	0xbcd8161e	-0.026377734
232	0x3e87d9ae	0.26533264
233	0x3d0940f9	0.03350923
234	0xbd25706f	-0.04039043
235	0xbb8ae7f7	-0.004239078
236	0xbd2bd46a	-0.04195062
237	0x3bc4991f	0.005999699
238	0x3d2cead7	0.04221615
239	0x3cb30ec8	0.021857634
240	0x3c811526	0.015757155
241	0xbd449ad7	-0.04799923
242	0xbbf001a6	-0.0073244153
243	0x3e513510	0.20430398
244	0x3d3b3cfc	0.045712456
245	0xbc37e526	-0.011224067
246	0x3d958f08	0.07302672
247	0xbc3052cc	-0.010761928
248	0x3dd289c9	0.10280187
249	0x3e3c0a65	0.1836334
250	0x3dc7d92d	0.0975822
251	0x3ce5cd7a	0.02805208
252	0x3d89781c	0.06712362
253	0x3dc38cc2	0.09548332
254	0x3df55cde	0.11980604
255	0x3d0a3c72	0.03374905

fc1.bias f4 [128]
0	0xbec241e3	-0.37940893
1	0x3ecbb695	0.39787737
2	0xbe19a2a1	-0.15003444
3	0xbe28a593	-0.16469412
4	0xbe5a01fb	-0.21289818
5	0x3e3d5833	0.18490677
6	0xbda84c04	-0.08217624
7	0xbed0bc6c	-0.40768754
8	0xbcf71858	-0.030162975
9	0x3e88e5e7	0.26737902
10	0x3d300665	0.04297485
11	0x3e850550	0.25980616
12	0xbe9ccfae	-0.30627197
13	0x3dd3e3ea	0.103462055
14	0x3d1909ec	0.037362978
15	0x3e5a2072	0.2130144
16	0x3ec23ff1	0.37939408
17	0xbabff37a	-0.0014644705
18	0x3e7bf513	0.24605207
19	0xbe40ff0b	-0.18847291
20	0xbc8a01d5	-0.016846577
21	0xbd9fdf53	-0.078062676
22	0x3ef41abb	0.47676644
23	0x3eb87b61	0.3603163
24	0xbee797e8	-0.45233083
25	0x3e4f3797	0.2023605
26	0xbd078977	-0.03309008
27	0xbd0bad19	-0.034100626
28	0xbe1cd411	-0.15315272
29	0x3c6ea702	0.014566185
30	0x3ecd36fd	0.40081015
31	0x3d592e76	0.053022824
32	0xbc8ffcf0	-0.017576665
33	0x3e9f684a	0.31134254
34	0xbe89790c	-0.26850164
35	0xbdc7d0da	-0.09756632
36	0x3f1295ce	0.57259834
37	0x3dcea175	0.10089389
38	0x3ee8d3e4	0.4547416
39	0x3f27c7b8	0.6553912
40	0xbee3f3ba	-0.44521886
41	0xbe852b95	-0.26009813
42	0x3ea3daca	0.3200286
43	0xbd210f3a	-0.03932116
44	0xbc3d0290	-0.0115362555
45	0x3e40b574	0.18819219
46	0xbd61ebce	-0.05515652
47	0x3eb2d141	0.34925273
48	0xbe999221	-0.299943
49	0x3eb962a9	0.36208084
50	0xbe48a0e4	-0.19592625
51	0xbe270165	-0.16309126
52	0xbe7a4305	-0.24439628
53	0x3c5ba2b1	0.013405488
54	0xbdec1eb9	-0.115292974
55	0xbe3dc560	-0.18532324
56	0xbe15ea0b	-0.14640062
57	0xbe860e46	-0.26182765
58	0x3e1877ef	0.14889501
59	0xbea8fee1	-0.33006957
60	0xbdd05f9e	-0.101744875
61	0x3d3df43f	0.04637551
62	0xbee7993b	-0.45234093
63	0xbc324b76	-0.010882249
64	0xbd44b865	-0.048027415
65	0xbc95a508	-0.01826717
66	0xbc820760	-0.015872657
67	0x3f0cd41b	0.5501115
68	0xbc7bc15d	-0.015365926
69	0xbdd42069	-0.10357744
70	0x3c2935ea	0.0103277955
71	0xbdb99e19	-0.09063358
72	0x3bd1b3af	0.006399594
73	0x3d119c94	0.035549715
74	0x3eafd214	0.34339964
75	0x3edea6cf	0.4348664
76	0x3e9a25b7	0.301069
77	0xbe443a4c	-0.19162863
78	0x3dcabc5b	0.09899207
79	0x3d8b68e6	0.06807117
80	0x3f18d33e	0.5969733
81	0x3e9f443c	0.31106746
82	0x3e1049c4	0.1409064
83	0xbead967d	-0.33903876
84	0x3ec79fe1	0.38989165
85	0x3ec79d1e	0.38987058
86	0x3ee3cb48	0.4449103
87	0xbe83c6df	-0.25737664
88	0xbf141c74	-0.57855916
89	0xbe0757b5	-0.13217051
90	0xbe79b203	-0.24384312
91	0x3e979402	0.29605108
92	0x3d7667f0	0.060157716
93	0x3e85189f	0.25995347
94	0xbd272c8c	-0.040813968
95	0x3da5721c	0.08078405
96	0xbe96062a	-0.29301578
97	0x3c389492	0.011265891
98	0x3da7178b	0.08158787
99	0x3e82b442	0.2552815
100	0x3e1afcea	0.15135542
101	0xbe6db47e	-0.23213384
102	0x3eb4fad8	0.3534763
103	0xbc0b5c96	-0.008505961
104	0x3e98fd88	0.2988093
105	0x3e50b07e	0.20379826
106	0xbe9a6713	-0.30156764
107	0x3f07b794	0.53014493
108	0x3dfbc646	0.12293677
109	0x3e6b3a33	0.2297142
110	0xbe841b2a	-0.25801975
111	0x3ea59edf	0.32347772
112	0xbe45d7ba	-0.19320574
113	0xbe5263d9	-0.20545901
114	0x3eb1e15f	0.34742257
115	0xbbb28e17	-0.0054490673
116	0x3f00de49	0.5033918
117	0xbe82b948	-0.25531983
118	0x3edfaef5	0.4368817
119	0x3ebf0569	0.37308815
120	0xbcd1f207	-0.025628103
121	0x3d6c9906	0.057763122
122	0xbebb398d	-0.36567345
123	0xbebe68fd	-0.37189475
124	0x3e917f6d	0.2841753
125	0x3df1f759	0.11814756
126	0xbedc8e7c	-0.43077457
127	0x3e416212	0.18885067

fc2.weight f4 [64, 128]
0	0x3d95bb80	0.073111534
1	0xbd74d5d2	-0.059774227
2	0x3db5a607	0.08869558
3	0x3d8f22ed	0.069890834
4	0x3e06a9c1	0.13150693
5	0x3d9971b1	0.07492388
6	0x3d9e85a6	0.07740335
7	0x3dc912eb	0.098180614
8	0xbda139e3	-0.07872369
9	0xbe4097aa	-0.18807855
10	0x3dd89800	0.10575867
11	0xbe23600c	-0.15954608
12	0x3d822588	0.06354815
13	0x3e86f33e	0.26357454
14	0x3d8c2c69	0.06844408
15	0xbe476a86	-0.19474229
16	0xbe7b38e2	-0.24533418
17	0xbd9e1d7c	-0.077204674
18	0xbdb0af3b	-0.086271726
19	0xbdab6de0	-0.08370566
20	0x3bf4ee21	0.0074746762
21	0xbe1e0146	-0.15430173
22	0xbe2d9265	-0.16950376
23	0x3e23242b	0.15931766
24	0xbc4522e3	-0.012032243
25	0x3e846e78	0.2586553
26	0xbdac48e1	-0.08412338
27	0x3d385950	0.04500705
28	0xbd6b6472	-0.05746884
29	0xbd484e75	-0.048902947
30	0xbdadd3c0	-0.08487654
31	0x3d18fc37	0.037349906
32	0x3dbf6434	0.09345284
33	0xbd6d7b04	-0.057978645
34	0xbd40049e	-0.046879403
35	0x3e5d2d85	0.21599396
36	0x3d392bcc	0.045207784
37	0x3df30323	0.11865833
38	0xbde43871	-0.11143578
39	0x3eca5983	0.39521417
40	0x3ca81b3a	0.020520795
41	0x3d4e64a9	0.050388966
42	0x3dbc4417	0.091926746
43	0xbda291a0	-0.07937932
44	0xbe07c201	-0.132576
45	0x3e829b22	0.25508982
46	0xbcf6dbe5	-0.03013415
47	0x3d2dce92	0.04243333
48	0xbe1004f4	-0.1406439
49	0xbd9a8ea5	-0.075467385
50	0x3dccd3ba	0.10001321
51	0x3dd1af52	0.10238518
52	0xbdca7c37	-0.09886973
53	0x3cb8521f	0.022500096
54	0x3c833afe	0.01601934
55	0xbd926f7e	-0.07150172
56	0xbdb9bd80	-0.090693474
57	0x3e2b8018	0.16748083
58	0x3ee86202	0.45387274
59	0x3e3b3bbf	0.1828451
60	0x3dda61fc	0.1066322
61	0x3e8c9e84	0.27464688
62	0x3e4f5682	0.20247844
63	0x3ced2215	0.028946916
64	0x3d6ec3d9	0.058292244
65	0xbb8ddc5e	-0.0043292483
66	0x3e983c75	0.29733625
67	0x3dc10850	0.094254136
68	0xbcde7f4c	-0.02716031
69	0x3ebeb600	0.3724823
70	0xbce04a27	-0.027379109
71	0x3e637a38	0.22214592
72	0xbda73c71	-0.08165825
73	0xbe951a4a	-0.2912162
74	0x3dce8112	0.10083212
75	0xbdd12430	-0.1021198
76	0x3e8a1dd2	0.26975876
77	0xbdef6642	-0.11689426
78	0xbe1b11fd	-0.1514358
79	0x3e8e681a	0.27813798
80	0x3de09916	0.10966699
81	0x3e46a4ce	0.19398805
82	0x3d9c4622	0.07630564
83	0x3dd66b08	0.10469633
84	0xbd06fc5a	-0.032955505
85	0xbdf0e627	-0.11762648
86	0x3e8dbb4b	0.27681956
87	0x3e90e89d	0.2830247
88	0x3cbe2f6a	0.023215968
89	0x3de4d2bd	0.11173008
90	0xbccd8f11	-0.025092633
91	0xbe2e2e57	-0.17009865
92	0xbce116d9	-0.027476715
93	0x3d2ed89b	0.04268704
94	0x3ccd993d	0.025097484
95	0xbd91f3a6	-0.071265504
96	0xbbccebb1	-0.0062536825
97	0x3ed6961e	0.41911405
98	0xbe1f2c28	-0.15544188
99	0x3ea5149e	0.32242292
100	0x3e57986d	0.2105424
101	0xbc55ced6	-0.013049802
102	0x3d265e97	0.04061755
103	0x3d7f2a92	0.062296458
104	0x3d5f2a06	0.054483436
105	0xbdee242a	-0.116279915
106	0x3e446a05	0.19181068
107	0x3ec29926	0.38007468
108	0xbe3e9646	-0.18612012
109	0x3e6d388d	0.23166104
110	0x3ee6fe86	0.4511606
111	0x3d053d89	0.032529388
112	0x3d055e02	0.032560356
113	0xbd219c1f	-0.03945553
114	0x3de8b241	0.11362124
115	0xbd375fee	-0.04476922
116	0x3e20df05	0.15710075
117	0x3d929c4a	0.07158716
118	0x3c34b762	0.01103005
119	0xbdac0212	-0.083988324
120	0x3d98ad34	0.07454911
121	0x3df942eb	0.12170967
122	0xbd6f81b3	-0.0584733
123	0x3e0b4fe8	0.136047
124	0x3e989d10	0.2980733
125	0xbde9ca82	-0.114155784
126	0xbd7a1864	-0.061058417
127	0x3dd59144	0.10428098
128	0x3e29736f	0.1654794
129	0x3d97fa68	0.07420808
130	0x3e1caa5d	0.15299363
131	0x3d3aac83	0.045574676
132	0xbde67d27	-0.1125434
133	0x3ef35d42	0.47532088
134	0x3dad766f	0.08469855
135	0x3dc31307	0.095251136
136	0xbda4baf2	-0.080434695
137	0x3d77f463	0.0605358
138	0x3dd8487a	0.10560699
139	0x3d8f9e59	0.07012624
140	0x3d4484fb	0.047978383
141	0xbd4fd50a	-0.05074028
142	0x3b1c0a59	0.0023809879
143	0xbbcaff8a	-0.0061950134
144	0x3d415e94	0.047209337
145	0x3c311003	0.01080704
146	0x3df81523	0.121134065
147	0xbd94ba47	-0.07262092
148	0x3d9f19a9	0.07768566
149	0x3cdff88a	0.027340192
150	0x3e38bfa9	0.18041863
151	0x3cabd4e3	0.020975536
152	0xbe20153e	-0.15633103
153	0xbe758281	-0.23975565
154	0xbd5a61ff	-0.053316113
155	0x3d12e3fd	0.035861958
156	0x3c01822e	0.007904572
157	0x3d0facaa	0.035076775
158	0x3e15500f	0.14581321
159	0x3e263c22	0.16233876
160	0x3d9e6800	0.0773468
161	0x3d6e713a	0.05821345
162	0x3d7be9a8	0.06150213
163	0xbeb87d51	-0.3603311
164	0x3dcd73cc	0.10031852
165	0x3d1cc266	0.03827133
166	0x3e036096	0.12829813
167	0xbeb4376b	-0.3519853
168	0xbdfd4b37	-0.12367862
169	0xbdaa50f1	-0.083162196
170	0x3e52f558	0.20601404
171	0xbda0e867	-0.07856827
172	0x3d1589fc	0.036508545
173	0x3e81b758	0.25335193
174	0x3d8c3511	0.06846059
175	0x3e33358a	0.17500892
176	0xbda23ede	-0.07922147
177	0x3dc1df8a	0.09466465
178	0x3d07965b	0.033102375
179	0x3e928395	0.28616014
180	0xbdcc9e35	-0.09991113
181	0x3d16240e	0.03665548
182	0xbdaa732d	-0.08322749
183	0x3e0fcb40	0.14042377
184	0x3da13fad	0.07873473
185	0xbe78392b	-0.24240558
186	0xbe4e9793	-0.20175008
187	0x3cda0b3d	0.026616687
188	0xbb846436	-0.0040402664
189	0x3e73f7e4	0.23825032
190	0xbe7a2981	-0.24429895
191	0xbd9d398d	-0.076769926
192	0xbd217368	-0.0394167
193	0xbd9e8ba1	-0.07741476
194	0x3def9765	0.11698798
195	0x3ce736a5	0.028224299
196	0x3dd6cf9b	0.10488816
197	0xbe40cc49	-0.18827929
198	0x3e28eb0d	0.16495915
199	0x3d54b9ce	0.05193501
200	0xbe6a2ee3	-0.22869448
201	0xbcee94d3	-0.0291237
202	0x3ded67c3	0.115920566
203	0x3e66d48b	0.22542016
204	0x3c4e2901	0.012583018
205	0xbd85593c	-0.06511161
206	0x3df5ada4	0.1199601
207	0x3d33c18e	0.04388576
208	0xbd7ad9b7	-0.061242785
209	0xbd6210e9	-0.055191908
210	0x3e1d2092	0.15344456
211	0x3d7757cd	0.060386468
212	0x3d323816	0.04351052
213	0x3e10c943	0.14139275
214	0xbdcbaac3	-0.099446796
215	0x3b982370	0.0046428964
216	0xbe3a468b	-0.18190973
217	0xbdcfd873	-0.10148706
218	0xbdb168ec	-0.086625904
219	0x3c0e1c15	0.008673687
220	0xbe24635c	-0.16053528
221	0x3e9c52f7	0.30532047
222	0xbd7580a8	-0.05993715
223	0x3e07ee3b	0.13274471
224	0xbdab0876	-0.08351223
225	0x3d44ada6	0.048017167
226	0xbd1ea4d4	-0.03873141
227	0xbe30715b	-0.17230742
228	0x3e62be48	0.22142899
229	0x3cf36606	0.029711735
230	0xbc94cdb0	-0.018164486
231	0x3d01a981	0.031655792
232	0x3e616bdf	0.22013806
233	0x3e0945d0	0.13405538
234	0xbe290085	-0.16504104
235	0xbec62f32	-0.38707882
236	0x3c926b23	0.017873352
237	0x3d24c33a	0.040225245
238	0xbeb3c866	-0.3511383
239	0x3e70dff8	0.23522937
240	0x3d7055bc	0.058675513
241	0xbde4efab	-0.111785255
242	0xbe531f22	-0.20617345
243	0x3d7e24cb	0.062046807
244	0xbe2feb44	-0.1717959
245	0xbd3b5ac1	-0.045740847
246	0x3e4cf0fb	0.20013802
247	0x3d3c87ce	0.04602795
248	0xbcaff3e0	-0.021478593
249	0x3e2f996a	0.17148367
250	0xbddff98a	-0.10936268
251	0x3d927517	0.07151239
252	0xbd541c36	-0.051784717
253	0x3da2b4c7	0.07944637
254	0x3ce7bbd5	0.028287807
255	0xbd9fd1e6	-0.07803707

fc2.bias f4 [64]
0	0x3ed63d0e	0.41843456
1	0x3e8da955	0.27668253
2	0x3f05a937	0.52211326
3	0x3edb00ac	0.4277395
4	0x3f0962a0	0.53666115
5	0xbde1f12c	-0.11032328
6	0xbe479ffa	-0.1949462
7	0x3f1004ff	0.56257623
8	0xbeae5050	-0.3404565
9	0x3e67edcb	0.22649305
10	0x3d9ca52e	0.07648693
11	0x3c668071	0.014068709
12	0x3eb37e0b	0.350571
13	0x3e85139e	0.2599153
14	0x3c82718b	0.015923282
15	0x3ed2902f	0.41125628
16	0x3de682bf	0.112554066
17	0xbd844cac	-0.064599365
18	0x3e928d66	0.28623503
19	0x3eea3d45	0.4574987
20	0x3e8dc1a5	0.27686802
21	0xbe164847	-0.14676009
22	0x3e9839c4	0.29731572
23	0xbedd5e20	-0.43235874
24	0xbda4cca7	-0.08046847
25	0xbddd70eb	-0.10812553
26	0x3d8d4305	0.068975486
27	0xbeb2cd3a	-0.349222
28	0x3d26145e	0.040546767
29	0x3eadbfdb	0.33935437
30	0xbda1fcf2	-0.079095736
31	0xbe61cfce	-0.22051927
32	0x3ea66a23	0.3250285
33	0x3e0c81da	0.1372141
34	0xbe91d604	-0.28483593
35	0xbc0a0bf1	-0.008425699
36	0x3d2b2a10	0.04178816
37	0xbd81b5fa	-0.063335374
38	0x3e8cea45	0.27522483
39	0x3dfd1279	0.12357039
40	0x3d4dbfc7	0.05023172
41	0xbe97d8b5	-0.29657522
42	0xbea031ac	-0.31287897
43	0x3ee70e9e	0.4512834
44	0x3db171f5	0.08664314
45	0x3e97a261	0.29616073
46	0x3eca5181	0.39515308
47	0xbdb24d5a	-0.0870616
48	0xbd50bc21	-0.050960664
49	0xbd8abf43	-0.067747615
50	0x3d0b6cbd	0.034039248
51	0xbbdede8b	-0.0068014315
52	0xbd09cb87	-0.033641364
53	0xbdf3d2f9	-0.11905474
54	0x3f1e4996	0.61831033
55	0x3e05b4f4	0.1305731
56	0x3d32e125	0.043671746
57	0x3b7304c4	0.0037081698
58	0xbda6bd56	-0.08141582
59	0x3eec1ba1	0.4611483
60	0x3e7afe7f	0.24511145
61	0x3f04508b	0.516854
62	0x3e833bc5	0.25631538
63	0xbebd2cb2	-0.36948162

fc3.weight f4 [10, 64]
0	0xbced45b1	-0.028963896
1	0x3e328678	0.17434108
2	0xbe2c9b6a	-0.16856161
3	0x3e272bd4	0.16325313
4	0x3c92b83c	0.017910115
5	0xbe39a2cf	-0.18128513
6	0xbd85fa62	-0.06541897
7	0x3e56c766	0.20974502
8	0x3e17af88	0.14813054
9	0xbedb239e	-0.4280061
10	0x3db6096c	0.08888516
11	0x3ce477fb	0.027889242
12	0x3e4fd5c6	0.20296392
13	0x3dc5d0d7	0.09658974
14	0x3e1d2871	0.15347458
15	0x3e3a82da	0.18213978
16	0x3d0006bc	0.031256422
17	0xbec5aa49	-0.3860648
18	0xbec93c20	-0.39303684
19	0x3defe518	0.11713618
20	0xbde05b49	-0.10954911
21	0xbeb0ed89	-0.34556225
22	0x3e61f574	0.22066289
23	0x3e37768e	0.17916319
24	0xbe822b83	-0.25423822
25	0x3a882db1	0.0010389594
26	0xbe9b8db9	-0.30381563
27	0xbe8b8c77	-0.27255604
28	0xbe95e544	-0.29276478
29	0xbd9ed15e	-0.07754777
30	0xbdb0904f	-0.08621275
31	0x3d958575	0.073008455
32	0x3d404cef	0.04694837
33	0xbf0867e4	-0.53283525
34	0x3e2585e1	0.16164352
35	0x3cf50fa3	0.029914683
36	0xbe62e606	-0.2215806
37	0xbe06ba7b	-0.13157074
38	0xbe435445	-0.19075115
39	0x3e158a04	0.1460343
40	0x3d43d55c	0.047810897
41	0xbe185f58	-0.14880121
42	0xbd7d53b6	-0.06184741
43	0x3e228ea0	0.1587472
44	0xbe9b6713	-0.30352077
45	0xbe5cab54	-0.21549731
46	0x3cf48464	0.029848285
47	0x3dcae3f6	0.09906761
48	0xbdc6edea	-0.09713347
49	0xbde3439a	-0.11096878
50	0x3d85da5a	0.06535788
51	0x3e105d91	0.14098193
52	0xbd0ad3e1	-0.03389347
53	0xbd845e9a	-0.06463356
54	0xbdf13884	-0.117783576
55	0xbe0ff3ff	-0.14057921
56	0xbe7dd5b9	-0.2478856
57	0x3d509ce7	0.050930884
58	0xbdaf6dfc	-0.085659
59	0x3e459e06	0.19298562
60	0xbe8a79c3	-0.27046022
61	0xbd04f444	-0.032459512
62	0xbeab8537	-0.33500072
63	0xbd85d66a	-0.06535037
64	0xbeda2eff	-0.4261398
65	0xbe728c06	-0.23686227
66	0xbe01047b	-0.12599365
67	0xbc0b0f16	-0.0084874835
68	0x3e0fda7c	0.14048189
69	0x3e4e5caa	0.20152536
70	0x3e4d04e4	0.20021397
71	0xbdb04d8b	-0.0860854
72	0xbe02eb63	-0.12785105
73	0xbdc10606	-0.09424977
74	0xbeec2dbd	-0.46128646
75	0x3c56230d	0.01306988
76	0x3cc24f17	0.023719354
77	0x3e36a25d	0.17835374
78	0x3e57d606	0.21077737
79	0x3e3609ab	0.17777126
80	0xbdce3305	-0.10068325
81	0x3e816b3b	0.25277123
82	0xbee7ab79	-0.4524801
83	0x3e3984e8	0.18117106
84	0xbd5b722a	-0.053575672
85	0x3e4d2505	0.20033653
86	0xbecedfa3	-0.40404996
87	0x3e8ac9e3	0.27107152
88	0x3e271821	0.16317798
89	0xbd604b3f	-0.05475926
90	0x3d4f98d9	0.050682876
91	0x3d347065	0.0440525
92	0x3ea0fdd4	0.31443655
93	0x3da2132c	0.07913813
94	0x3e873fa5	0.26415744
95	0x3e68190e	0.22665808
96	0xbecbd20a	-0.39808685
97	0x3d0c71e2	0.034288295
98	0xbd4c0319	-0.04980764
99	0xbddf8afa	-0.109151796
100	0x3e170b24	0.14750344
101	0xbed5a4f3	-0.4172741
102	0xbe9f9e7a	-0.31175596
103	0x3ed50e02	0.4161225
104	0x3e07f73b	0.13277905
105	0xbe894076	-0.26806992
106	0x3dd6e1de	0.104922995
107	0x3e095837	0.13412558
108	0xbef0297e	-0.46906656
109	0x3d6aa6fb	0.05728815
110	0xbe8996d8	-0.26872897
111	0x3c962d9d	0.018332297
112	0xbce90538	-0.028444871
113	0xbd7f0f5d	-0.06227051
114	0xbdc3a943	-0.095537685
115	0xbc47cc1a	-0.012194658
116	0xbe048982	-0.1294308
117	0x3c3175e8	0.010831334
118	0x3c09fcfa	0.008422131
119	0x3e69c58e	0.22829267
120	0xbec7e7b3	-0.3904396
121	0x3db8f4c0	0.09031057
122	0xbf27da7d	-0.6556776
123	0xbe3a9a06	-0.18222818
124	0xbdc4f15f	-0.096163504
125	0xbeb5985f	-0.35467812
126	0xbf244c54	-0.6417897
127	0xbe9fabdf	-0.31185815
128	0xbe09c148	-0.13452637
129	0xbde67920	-0.112535715
130	0xbd7177eb	-0.058952253
131	0xbe0d35e9	-0.13790096
132	0x3dcdbf9a	0.10046311
133	0x3d3108fd	0.043221463
134	0xbe5d66d0	-0.21621251
135	0x3d81f292	0.06345095
136	0xbe764c50	-0.24052548
137	0x3deb4eed	0.11489663
138	0xbdc5d944	-0.09660581
139	0xbd0ca743	-0.0343392
140	0x3d499cb5	0.049221713
141	0xbcccd89d	-0.025005633
142	0xbec4404b	-0.38330302
143	0x3e465749	0.19369234
144	0xbe8b0fda	-0.2716053
145	0x3cb27019	0.021781968
146	0x3dffb791	0.124861844
147	0xbe3d6033	-0.18493728
148	0xbf17ae1d	-0.5925005
149	0x3d5f1e04	0.054471985
150	0xbabd34f2	-0.0014435335
151	0xbebd61e1	-0.36988738
152	0x3e243920	0.16037416
153	0x3bd332ef	0.0064452807
154	0xbe239fd8	-0.15978944
155	0xbedad83c	-0.427431
156	0x3e2c2db3	0.16814308
157	0x3e2f6d96	0.17131647
158	0x3c409bda	0.011755908
159	0xbe0077c4	-0.12545687
160	0xbcc654e3	-0.024210399
161	0xbdd80e54	-0.10549608
162	0x3db9ead1	0.09077991
163	0x3d60d81c	0.054893598
164	0xbe890458	-0.26761127
165	0xbe1c2d39	-0.15251626
166	0xbe88ca80	-0.26716995
167	0x3e33effa	0.17572013
168	0xbde5d9a7	-0.112231545
169	0x3c6b2f69	0.014354565
170	0x3de97bf7	0.114005975
171	0xbe0db603	-0.13838963
172	0x3dc242f7	0.09485429
173	0xbe4c7fd0	-0.19970632
174	0x3e394289	0.18091787
175	0x3d97f709	0.07420165
176	0xbda1383c	-0.07872054
177	0xbc340dd9	-0.01098963
178	0xbdc72142	-0.0972314
179	0x3e0f54d0	0.13997197
180	0x3c7f5edf	0.015586584
181	0x3d0cfb2a	0.034419216
182	0xbe1e889c	-0.154818
183	0x3df78475	0.12085811
184	0x3da15fef	0.07879626
185	0xbdaa522c	-0.08316454
186	0x3d39a628	0.045324475
187	0xbd6a5651	-0.057211224
188	0x3e36bef9	0.17846288
189	0x3e440619	0.19142951
190	0x3e2f6c75	0.17131217
191	0xbe43594e	-0.19077036
192	0xbb4d1bef	-0.0031297167
193	0xbc43e2cf	-0.011955931
194	0xbe91b5ea	-0.28459102
195	0x3d766ba5	0.06016125
196	0x3d93d47b	0.07218262
197	0xbe806e0f	-0.25083968
198	0x3c51c707	0.0128037995
199	0x3b81f5e2	0.003966079
200	0xbe3eeabf	-0.18644236
201	0x3e1e9fc1	0.15490629
202	0x3deb782c	0.1149753
203	0xbdcc625c	-0.09979698
204	0xbc8df10d	-0.017326856
205	0x3d90dd4a	0.070734575
206	0x3e1659fc	0.14682764
207	0x3d02f2db	0.031969886
208	0xbe90bc7e	-0.28268808
209	0xbdf5a01b	-0.11993428
210	0xbde024f0	-0.10944545
211	0x3d3dc503	0.046330463
212	0xbd08a519	-0.033360574
213	0xbe9295a6	-0.28629798
214	0xbdb5a85d	-0.08870003
215	0xbe298b28	-0.1655699
216	0xbe3f389c	-0.18673939
217	0x3d98762c	0.074444145
218	0xbe5566c4	-0.20839983
219	0x3da2a95a	0.079424575
220	0xbea44e74	-0.32091105
221	0x3e2a0904	0.16605002
222	0x3d37a233	0.04483242
223	0x3de2e5d7	0.11078995
224	0x3df26cef	0.11837184
225	0x3eba771e	0.36419004
226	0xbcf15fe5	-0.029464671
227	0xbec1ca8a	-0.37849838
228	0xbe13d92e	-0.14438316
229	0xbdd23928	-0.10264808
230	0x3e873fa6	0.26415747
231	0xbe952ae8	-0.29134297
232	0x3de6e4f8	0.11274141
233	0x3e23b359	0.15986384
234	0xbe3f5249	-0.18683733
235	0xbec5b631	-0.38615564
236	0x3e3610a7	0.1777979
237	0x3e85633c	0.26052272
238	0x3de03e21	0.1094935
239	0x3da4be85	0.08044151
240	0xbdc127dc	-0.09431431
241	0xbe30aa13	-0.17252378
242	0xbe92edc2	-0.2869702
243	0x3dc36c81	0.0954218
244	0x3c773cdf	0.015090196
245	0xbee402c1	-0.4453335
246	0xbf0b9bac	-0.5453441
247	0x3e0503d0	0.12989736
248	0xbe33b148	-0.17548096
249	0x3d3df123	0.046372544
250	0xbda162e4	-0.0788019
251	0x3d809b6d	0.06279645
252	0x3e2d5ec1	0.16930677
253	0x3de63f1f	0.11242508
254	0x3c0feea4	0.008784924
255	0x3ddf4128	0.109010994

fc3.bias f4 [10]
0	0x3e0b483a	0.13601771
1	0xbe9fc018	-0.31201243
2	0x3e28bb00	0.16477585
3	0x3dd1e75e	0.10249208
4	0xbeaf50d3	-0.3424135
5	0x3eccb700	0.39983368
6	0x3e80284d	0.25030747
7	0x3e84dd6e	0.25950187
8	0xbe1ede78	-0.15514553
9	0xbf09916b	-0.53737515
